                 from  n    params  module                                  arguments
  0                -1  1      5280  models.common.Conv                      [3, 48, 6, 2, 2]
  1                -1  1     41664  models.common.Conv                      [48, 96, 3, 2]
  2                -1  2     23208  models.common.C3Ghost                   [96, 96, 2]
  3                -1  1    166272  models.common.Conv                      [96, 192, 3, 2]
  4                -1  4    101280  models.common.C3Ghost                   [192, 192, 4]
  5                -1  1    664320  models.common.Conv                      [192, 384, 3, 2]
  6                -1  6    432096  models.common.C3Ghost                   [384, 384, 6]
  7                -1  1   2655744  models.common.Conv                      [384, 768, 3, 2]
  8                -1  2   1346880  models.common.C3Ghost                   [768, 768, 2]
  9                -1  1   1476864  models.common.SPPF                      [768, 768, 5]
 10                -1  2   1346880  models.common.C3Ghost                   [768, 768, 2, False]
 11                -1  1    295680  models.common.Conv                      [768, 384, 1, 1]
 12                 6  2    341664  models.common.C3Ghost                   [384, 384, 2, False]
 13                -1  1   1327872  models.common.Conv                      [384, 384, 3, 2]
 14          [-1, 11]  1         0  models.common.Concat                    [1]
 15                -1  1    591360  models.common.Conv                      [768, 768, 1, 1]
 16                -1  1         0  models.common.Res2Ghost                 [768, 768, False]
 17                -1  1    591360  models.common.Conv                      [768, 768, 1, 1]
 18          [-1, 10]  1         0  models.common.Concat                    [1]
 19                -1  2   1936704  models.common.C3Ghost                   [1536, 768, 2, False]
 20                -1  1    295680  models.common.Conv                      [768, 384, 1, 1]
 21                -1  1     74112  models.common.Conv                      [384, 192, 1, 1]
 22                -1  1         0  torch.nn.modules.upsampling.Upsample    [None, 2, 'nearest']
 23                 4  2     87888  models.common.C3Ghost                   [192, 192, 2, False]
 24                -1  1    332160  models.common.Conv                      [192, 192, 3, 2]
 25                 6  2    124752  models.common.C3Ghost                   [384, 192, 2, False]
 26      [-1, 22, 24]  1         0  models.common.Concat                    [1]
 27                -1  1    221952  models.common.Conv                      [576, 384, 1, 1]
 28                -1  1         0  models.common.Res2Ghost                 [384, 384, False]
 29                -1  1    148224  models.common.Conv                      [384, 384, 1, 1]
 30           [-1, 6]  1         0  models.common.Concat                    [1]
 31                -1  2   1346880  models.common.C3Ghost                   [768, 768, 2, False]
 32                -1  1    295680  models.common.Conv                      [768, 384, 1, 1]
 33                -1  1     37056  models.common.Conv                      [384, 96, 1, 1]
 34                -1  1         0  torch.nn.modules.upsampling.Upsample    [None, 2, 'nearest']
 35                 2  2     23208  models.common.C3Ghost                   [96, 96, 2, False]
 36                -1  1     83136  models.common.Conv                      [96, 96, 3, 2]
 37                 4  2     32424  models.common.C3Ghost                   [192, 96, 2, False]
 38      [-1, 34, 36]  1         0  models.common.Concat                    [1]
 39                -1  1     55680  models.common.Conv                      [288, 192, 1, 1]
 40                -1  1         0  models.common.Res2Ghost                 [192, 192, False]
 41                -1  1     37248  models.common.Conv                      [192, 192, 1, 1]
 42           [-1, 4]  1         0  models.common.Concat                    [1]
 43                18  1    159748  models.common.GAM_Attention             [1536, 1536]
 44                30  1     79876  models.common.GAM_Attention             [768, 768]
 45                42  1     39940  models.common.GAM_Attention             [384, 384]
 46                43  2   5347968  models.common.C3Ghost                   [1536, 1536, 2, False]
 47                44  2   1346880  models.common.C3Ghost                   [768, 768, 2, False]
 48                45  2    341664  models.common.C3Ghost                   [384, 384, 2, False]
 49      [48, 47, 46]  1    104949  models.yolo.Detect                      [8, [[10, 13, 16, 30, 33, 23], [30, 61, 62, 45, 59, 119], [116, 90, 156, 198, 373, 326]], [384, 768, 1536]]
test_2 summary: 1005 layers, 23962233 parameters, 23962233 gradients, 49.5 GFLOPs
[34m[1mAMP: [39m[22mchecks passed ✅
[34m[1moptimizer:[39m[22m SGD(lr=0.01) with parameter groups 216 weight(decay=0.0), 225 weight(decay=0.0005), 231 bias
…
