                 from  n    params  module                                  arguments
  0                -1  1      5280  models.common.Conv                      [3, 48, 6, 2, 2]
  1                -1  1     41664  models.common.Conv                      [48, 96, 3, 2]
  2                -1  2     23208  models.common.C3Ghost                   [96, 96, 2]
  3                -1  1    166272  models.common.Conv                      [96, 192, 3, 2]
  4                -1  4    101280  models.common.C3Ghost                   [192, 192, 4]
  5                -1  1    664320  models.common.Conv                      [192, 384, 3, 2]
  6                -1  6    432096  models.common.C3Ghost                   [384, 384, 6]
  7                -1  1   2655744  models.common.Conv                      [384, 768, 3, 2]
  8                -1  2   1346880  models.common.C3Ghost                   [768, 768, 2]
  9                -1  1   1476864  models.common.SPPF                      [768, 768, 5]
 10                 9  1     79876  models.common.GAM_Attention             [768, 768]
 11                 6  1     39940  models.common.GAM_Attention             [384, 384]
 12                 4  1     19972  models.common.GAM_Attention             [192, 192]
 13                10  2   1346880  models.common.C3Ghost                   [768, 768, 2, False]
 14                11  2    341664  models.common.C3Ghost                   [384, 384, 2, False]
 15                12  2     87888  models.common.C3Ghost                   [192, 192, 2, False]
 16      [15, 14, 13]  1     52533  models.yolo.Detect                      [8, [[10, 13, 16, 30, 33, 23], [30, 61, 62, 45, 59, 119], [116, 90, 156, 198, 373, 326]], [192, 384, 768]]
test_1 summary: 541 layers, 8882361 parameters, 8882361 gradients, 19.8 GFLOPs
[34m[1mAMP: [39m[22mchecks passed ✅
[34m[1moptimizer:[39m[22m SGD(lr=0.01) with parameter groups 114 weight(decay=0.0), 123 weight(decay=0.0005), 129 bias
…
