                 from  n    params  module                                  arguments
  0                -1  1      5280  models.common.Conv                      [3, 48, 6, 2, 2]
  1                -1  1     41664  models.common.Conv                      [48, 96, 3, 2]
  2                -1  2     23208  models.common.C3Ghost                   [96, 96, 2]
  3                -1  1    166272  models.common.Conv                      [96, 192, 3, 2]
  4                -1  4    101280  models.common.C3Ghost                   [192, 192, 4]
  5                -1  1    664320  models.common.Conv                      [192, 384, 3, 2]
  6                -1  6    432096  models.common.C3Ghost                   [384, 384, 6]
  7                -1  1   2655744  models.common.Conv                      [384, 768, 3, 2]
  8                -1  2   1346880  models.common.C3Ghost                   [768, 768, 2]
  9                -1  1   1476864  models.common.SPPF                      [768, 768, 5]
 10                -1  2   1346880  models.common.C3Ghost                   [768, 768, 2, False]
 11                -1  1    295680  models.common.Conv                      [768, 384, 1, 1]
 12                 6  2    341664  models.common.C3Ghost                   [384, 384, 2, False]
 13                -1  1   1327872  models.common.Conv                      [384, 384, 3, 2]
 14          [-1, 11]  1         0  models.common.Concat                    [1]
 15                -1  1    591360  models.common.Conv                      [768, 768, 1, 1]
Traceback (most recent call last):
  File "train.py", line 640, in <module>
    main(opt)
  File "train.py", line 529, in main
    train(opt.hyp, opt, device, callbacks)
  File "train.py", line 132, in train
    model = Model(cfg, ch=3, nc=nc, anchors=hyp.get('anchors')).to(device)  # create
  File "/home/zhangfeng/liuyuchen/yolov5-res2ghost/models/yolo.py", line 185, in __init__
    self.model, self.save = parse_model(deepcopy(self.yaml), ch=[ch])  # model, savelist
…
